PersonalizedChatbot/model.pth (torch, 8190 bytes, 14 tensors)

fc1.weight f4 [8, 65]
-0.6787844 -0.6112223 0.18217576 0.40820423 0.2950253 -0.6750981 -0.6641104 0.6693038
-0.2682617 -0.5915924 -0.21413866 0.930794 0.94954354 -0.055136397 0.3683167 0.9618301
0.7847336 -0.088827714 1.0726371 0.5556414 0.86031 0.049796708 1.0036061 0.1153969
-0.22908738 0.3535923 0.30933982 0.43820766 0.69183576 -0.26653907 -0.08665247 -0.124570064
1.0058918 0.6571553 -0.31839347 -0.37826443 0.027103553 0.43789518 0.2679797 -0.76414365
-0.1756407 0.04911422 0.11238975 -0.69427264 0.23004702 0.8570986 -0.3168115 -0.090680435
0.50292933 -0.101131 0.80401546 0.30213955 0.45428756 0.69588953 -0.21690877 0.04345295
0.008941281 -0.48802313 0.6455033 0.42921206 0.4865847 0.7941866 -0.3270706 -0.46070537
-0.16632538 -0.07579977 0.37035516 0.5692299 0.14789411 0.38000175 0.7128782 -0.124121964
-0.5063209 -0.5104853 0.92147624 0.26517713 0.4729215 0.5450035 -0.24965683 -0.062328923
-0.1745756 -0.026384601 0.10921624 0.35113138 -0.11088952 0.10544137 0.85993236 -0.5408927
0.21138409 -0.51372164 -0.35438755 -0.23740487 -0.44414124 -0.38008004 0.23821712 0.4551743
0.4029209 -0.9059042 0.24727803 -1.112261 0.86397344 -0.25533006 0.22240613 -0.36162305
0.76211554 0.3275119 -0.2618013 0.43984833 0.192996 0.6277492 0.24409 -0.8197961
0.44526204 0.23163164 -0.6781131 -0.6932421 -0.20076688 -0.42386457 0.12978075 -0.51811147
-0.19348805 -0.6101251 0.2164539 -0.5827201 0.7406465 0.95297205 0.22702895 0.6993629
0.7125075 0.9109325 0.6825242 -1.0283812 -0.3907745 0.034226146 -0.6503537 0.573663
0.7064454 0.4990227 0.3246638 -0.78171545 -0.29382145 -0.71163917 -0.86682713 0.56202394
0.20564002 1.1206776 0.6726417 -0.008185282 -0.12704763 0.4644191 0.46107745 0.23352915
-0.11068851 0.22750439 0.4792592 0.5840865 0.4466733 0.49050164 0.2962619 0.6336736
-0.32100898 -0.22512156 0.8848726 0.10507935 0.85072726 -0.75483817 0.83290356 0.18266776
0.83516705 0.22942312 -0.19690055 0.6124888 -0.45269272 0.3299683 -0.4293216 -0.15200025
0.616225 -0.35559916 0.16770847 0.63198364 0.4848089 -0.21162267 -0.16892464 0.13538924
0.50219023 0.6612522 0.5360957 0.51170814 -0.7477275 -0.4665811 -0.38995788 -0.1627097
0.4560104 -0.036436606 -0.7820518 -0.44417846 0.3730326 0.13336527 -0.1936434 -0.49102545
-0.0065543195 -0.46215373 0.32984704 0.35038596 0.5457845 0.20852858 -0.0042283107 0.035217606
-0.10865122 0.25309733 -0.16031398 0.7763522 -0.016355738 -0.7766623 -0.103267975 0.5052397
0.94212526 0.15118729 -0.010568938 0.59609157 -0.25357065 -0.1742293 -0.312314 0.5636884
-0.67606497 0.31147853 0.3007841 -0.9620011 0.526995 0.661502 0.5190344 -0.2803073
0.49661395 -0.15583035 0.6069148 0.47542953 -0.19309491 0.18375318 -0.15469398 0.0120006865
0.8010633 0.83752215 0.15959741 -0.17962897 0.43958065 0.20411111 -0.35775375 -0.25694734
0.52122986 0.5286097 -0.13751587 -0.3687753 -0.013636905 1.0479614 0.43223166 0.7695293
00000000: d0c4 2dbf 1179 1cbf 488c 3a3e 2500 d13e
00000010: 8e0d 973e 3bd3 2cbf 2403 2abf 7e57 2b3f
00000020: 9959 89be 9972 17bf 2a47 5bbe 8448 6e3f
00000030: 4915 733f b4d6 61bd 0294 bc3e 7f3a 763f
00000040: 4de4 483f 4eeb b5bd 2c4c 893f 843e 0e3f
00000050: 473d 5c3f a2f7 4b3d 2a76 803f 3655 ec3d
00000060: e295 6abe 0d0a b53e ca61 9e3e c15c e03e
00000070: 261c 313f cf77 88be da76 b1bd 971e ffbd
00000080: 10c1 803f 543b 283f 7804 a3be e0ab c1be
00000090: 4508 de3c cc33 e03e a334 893e eb9e 43bf
000000a0: 28db 33be fe2b 493d 992c e63d dabb 31bf
000000b0: 7291 6b3e d06a 5b3f 1e35 a2be aab6 b9bd
000000c0: fabf 003f c51d cfbd f5d3 4d3f 09b2 9a3e
000000d0: 6198 e83e d125 323f 551d 5ebe b8fb 313d
000000e0: 737e 123c 2bde f9be b43f 253f afc1 db3e
000000f0: a121 f93e d04f 4b3f cc75 a7be 93e1 ebbe
00000100: 3351 2abe e93c 9bbd 319f bd3e 0db9 113f
00000110: 8e71 173e 978f c23e 307f 363f a833 febd
00000120: 3f9e 01bf 2aaf 02bf dee5 6b3f 4cc5 873e
00000130: c422 f23e 5985 0b3f 0aa6 7fbe 9d4c 7fbd
00000140: f2c3 32be 8524 d8bc c4ac df3d 7ec7 b33e
00000150: 0b1a e3bd a5f1 d73d 8724 5c3f f277 0abf
00000160: 1275 583e 4383 03bf 4972 b5be 431a 73be
00000170: 7b66 e3be da99 c2be 30ef 733e 9b0c e93e
00000180: a64b ce3e 56e9 67bf 7436 7d3e 925e 8ebf
00000190: 5d2d 5d3f 9fba 82be 6fbe 633e a826 b9be
000001a0: 011a 433f a4af a73e d20a 86be cd33 e13e
000001b0: bea0 453e 2cb4 203f bbf2 793e 28de 51bf
000001c0: 63f9 e33e d830 6d3e d298 2dbf 5078 31bf
000001d0: d595 4dbe c704 d9be 3fe5 043e f4a2 04bf
000001e0: bb21 46be 2931 1cbf 17a6 5d3e 252d 15bf
000001f0: 029b 3d3f faf5 733f 477a 683e 7209 333f
00000200: e466 363f df32 693f e8b9 2e3f ffa1 83bf
00000210: 9813 c8be b730 0c3d 957d 26bf 94db 123f
00000220: 9bd9 343f e77f ff3e 553a a63e 811e 48bf
00000230: c46f 96be fc2d 36bf 62e8 5dbf cde0 0f3f
00000240: 4c93 523e 5d72 8f3f 3f32 2c3f 901b 06bc
00000250: c618 02be 57c8 ed3e 5812 ec3e 4422 6f3e
00000260: a8b0 e2bd e9f6 683e 7661 f53e b186 153f
00000270: 5db2 e43e 0823 fb3e a4af 973e 6f38 223f
00000280: 4a5b a4be 4486 66be 0387 623f d833 d73d
00000290: 43c9 593f 133d 41bf 2b39 553f 420d 3b3e
000002a0: 82cd 553f e5ed 6a3e 4ca0 49be 11cc 1c3f
000002b0: 57c7 e7be 9bf1 a83e 0ad0 dbbe f4a5 1bbe
000002c0: ecc0 1d3f 1811 b6be c5bb 2b3e aec9 213f
000002d0: df38 f83e 9db3 58be 95fa 2cbe 7aa3 0a3e
000002e0: 8a8f 003f d347 293f 913d 093f 4eff 023f
000002f0: 126b 3fbf b8e3 eebe 8fa8 c7be 5f9d 26be
00000300: 327a e93e 8d3e 15bd 8c34 48bf 5c6b e3be
00000310: 21fe be3e e890 083e 754a 46be b067 fbbe
00000320: 9ec5 d6bb 6a9f ecbe b6e1 a83e ca65 b33e
00000330: 88b8 0b3f 8488 553e a48d 8abb 5640 103d
00000340: 8884 debd f995 813e 5929 24be 05bf 463f
00000350: 78fc 85bc 57d3 46bf 297e d3bd 6457 013f
00000360: 1f2f 713f d7d0 1a3e 5729 2dbc 7599 183f
00000370: 03d4 81be 2a69 32be 9fe7 9fbe e24d 103f
00000380: 9812 2dbf 1d7a 9f3e 6000 9a3e b445 76bf
00000390: 25e9 063f 3258 293f 70df 043f 7084 8fbe
000003a0: 2f44 fe3e fe91 1fbe c55e 1b3f 806b f33e
000003b0: acba 45be cb29 3c3e 1968 1ebe 879e 443c
000003c0: 7c12 4d3f da67 563f 816d 233e a8f0 37be
000003d0: b710 e13e 8102 513e 802b b7be 9a8e 83be
000003e0: 526f 053f f752 073f f6d0 0cbe 1ed0 bcbe
000003f0: 536d 5fbc 9923 863f 784d dd3e dfff 443f

fc1.bias f4 [8]
0.64967734 0.5092144 0.9387676 0.7773372 0.72109455 0.63287455 0.5225048 0.5001248
00000000: 4151 263f e05b 023f 1353 703f 92ff 463f
00000010: a799 383f 1104 223f e0c2 053f 2e08 003f

bn1.weight f4 [8]
1.0 1.0 1.0 1.0 1.0 1.0 1.0 1.0
00000000: 0000 803f 0000 803f 0000 803f 0000 803f
00000010: 0000 803f 0000 803f 0000 803f 0000 803f

bn1.bias f4 [8]
0.0 0.0 0.0 0.0 0.0 0.0 0.0 0.0
00000000: 0000 0000 0000 0000 0000 0000 0000 0000
00000010: 0000 0000 0000 0000 0000 0000 0000 0000

bn1.running_mean f4 [8]
0.0 0.0 0.0 0.0 0.0 0.0 0.0 0.0
00000000: 0000 0000 0000 0000 0000 0000 0000 0000
00000010: 0000 0000 0000 0000 0000 0000 0000 0000

bn1.running_var f4 [8]
1.0 1.0 1.0 1.0 1.0 1.0 1.0 1.0
00000000: 0000 803f 0000 803f 0000 803f 0000 803f
00000010: 0000 803f 0000 803f 0000 803f 0000 803f

fc2.weight f4 [8, 8]
0.19578472 1.0683237 0.312381 -0.11109297 0.70317733 -1.1146386 0.92189234 1.5725641
-0.8017176 1.1220537 -0.61092925 1.0484262 0.81439966 -0.2580005 0.8038891 0.25456017
1.1102327 0.9991358 -0.9288907 0.83686805 -0.40550178 1.274085 0.82512134 -0.92353743
-0.60116243 -0.43753287 1.492474 0.427413 0.7024487 0.69836897 -0.26536632 -0.46947968
-1.1272073 0.8728513 0.12902047 0.42355317 1.3120867 0.10703484 0.68697774 -0.7632675
0.009123892 -0.0018236892 -0.21272922 0.13801844 0.13777302 -0.105370454 -0.1865379 -0.30918688
0.849185 -0.58922195 0.41727823 0.8432084 0.7085648 -1.2770807 0.63258207 -0.3130857
0.5037106 -0.3210869 1.0338538 0.31435302 0.76807314 -0.37225917 0.7231136 -1.3568128
00000000: ca7b 483e d5be 883f 67f0 9f3e b684 e3bd
00000010: 6e03 343f 7aac 8ebf 2301 6c3f c849 c93f
00000020: 5d3d 4dbf 759f 8f3f dc65 1cbf d432 863f
00000030: 7f7c 503f a418 84be adcb 4d3f b655 823e
00000040: 1b1c 8e3f 5dc7 7f3f c8cb 6dbf fc3c 563f
00000050: ee9d cfbe 3815 a33f 273b 533f f36c 6cbf
00000060: c8e5 19bf 4f04 e0be 6309 bf3f e0d5 da3e
00000070: aed3 333f 4fc8 323f 18de 87be a45f f0be
00000080: 5448 90bf 2f73 5f3f f11d 043e f6db d83e
00000090: 75f2 a73f 1535 db3d c6dd 2f3f 8065 43bf
000000a0: 607c 153c db08 efba b0d5 59be b554 0d3e
000000b0: 5f14 0d3e 77cc d7bd cb03 3fbe be4d 9ebe
000000c0: 3064 593f 40d7 16bf 7ea5 d53e 81dc 573f
000000d0: 8164 353f 6177 a3bf e6f0 213f c54c a0be
000000e0: 2ef3 003f 8165 a4be 5255 843f e1f2 a03e
000000f0: 71a0 443f c198 bebe f91d 393f 0bac adbf

fc2.bias f4 [8]
0.36336628 0.105674095 0.62708956 0.83607703 0.5212979 -0.17951266 -0.26122388 0.20405284
00000000: 250b ba3e a96b d83d f188 203f 2509 563f
00000010: c773 053f 2bd2 37be 23bf 85be 3af3 503e

bn2.weight f4 [8]
1.0 1.0 1.0 1.0 1.0 1.0 1.0 1.0
00000000: 0000 803f 0000 803f 0000 803f 0000 803f
00000010: 0000 803f 0000 803f 0000 803f 0000 803f

bn2.bias f4 [8]
0.0 0.0 0.0 0.0 0.0 0.0 0.0 0.0
00000000: 0000 0000 0000 0000 0000 0000 0000 0000
00000010: 0000 0000 0000 0000 0000 0000 0000 0000

bn2.running_mean f4 [8]
0.0 0.0 0.0 0.0 0.0 0.0 0.0 0.0
00000000: 0000 0000 0000 0000 0000 0000 0000 0000
00000010: 0000 0000 0000 0000 0000 0000 0000 0000

bn2.running_var f4 [8]
1.0 1.0 1.0 1.0 1.0 1.0 1.0 1.0
00000000: 0000 803f 0000 803f 0000 803f 0000 803f
00000010: 0000 803f 0000 803f 0000 803f 0000 803f

fc3.weight f4 [19, 8]
-1.1402123 -1.0615002 0.19149595 -0.124783196 -1.3207241 0.2904919 0.40783146 0.8014965
-0.6160703 0.5061381 0.49204722 -1.4104515 0.40413684 -0.12972778 -0.43994075 0.009365833
-1.2369057 -0.7698943 1.1437972 -0.80357575 -0.6945544 -0.20300457 -1.0898306 -0.3338466
0.3457711 0.31986156 -0.17385839 -1.2866514 -0.3787559 -0.057995256 0.5064887 0.055634085
0.36490998 -0.5880273 -0.21522047 -1.541573 -1.1799579 0.007763397 0.96156347 0.28163677
-0.82298774 0.094927885 0.509187 -1.2692469 -1.3263819 -0.33881345 0.486145 0.08694782
0.25852215 0.60329235 0.49845958 -0.91991293 -1.1422341 0.08887123 -0.6030561 -1.0775403
-1.1005708 -0.5804037 0.03951779 1.0396023 -0.8024031 -0.26547274 -1.1411747 0.46692798
-1.0594901 -1.144303 -1.3033683 0.81864303 1.1670218 -0.20484217 -0.938378 0.4781016
0.582816 0.40742657 -1.4662995 0.24786167 0.48850048 0.27061957 -0.8317419 -1.0567244
-0.071382225 0.29245108 -0.27295154 -0.48563746 0.57595104 0.023135837 -0.031057874 0.44442853
-0.6046045 0.19070517 -1.0865215 0.55077964 0.3391807 0.22152294 0.70013595 0.45450816
-1.399921 0.28626984 0.5254779 0.18536204 0.8154935 -0.26314127 -0.9289166 -1.4656744
0.76119727 -0.80372506 0.46418884 -0.6528435 -0.08061989 0.07388843 -0.8818391 -0.59244436
-0.61178243 0.35178447 -0.22434044 0.44145337 0.96071005 -0.10192911 -1.1426818 -0.09339878
0.58495325 0.14125994 -1.2193567 0.18121724 -0.36398673 -0.03765488 0.34117806 0.16481897
0.62155855 0.6767166 -0.6491878 -1.2537346 0.48247617 0.2596469 -0.014855463 -0.46707407
0.10450393 0.10907684 -0.07455463 -0.16240315 -0.13564031 -0.117019996 -0.5370192 0.4715893
-0.00047558948 -0.072155386 -0.40088168 -0.3185375 -0.2418079 -0.15448013 0.28092244 0.36174503
00000000: 7af2 91bf 3ddf 87bf 8417 443e 558e ffbd
00000010: 7d0d a9bf 5bbb 943e 49cf d03e e02e 4d3f
00000020: c8b6 1dbf 4492 013f 9ded fb3e ad89 b4bf
00000030: 06eb ce3e 5cd7 04be ea3f e1be 2773 193c
00000040: ed52 9ebf cb17 45bf f267 923f 24b7 4dbf
00000050: 51ce 31bf 6ee0 4fbe 927f 8bbf f1ed aabe
00000060: e908 b13e e5c4 a33e ef07 32be feb0 a4bf
00000070: 4bec c1be 6f8c 6dbd 3ea9 013f 91e0 633d
00000080: 7bd5 ba3e f588 16bf c162 5cbe 4452 c5bf
00000090: dc08 97bf 1864 fe3b 0629 763f b232 903e
000000a0: 53af 52bf 8d69 c23d 145a 023f af76 a2bf
000000b0: e2c6 a9bf f578 adbe ffe7 f83e b311 b23d
000000c0: 045d 843e 5e71 1a3f 1836 ff3e 6a7f 6bbf
000000d0: ba34 92bf 1f02 b63d e261 1abf d7ec 89bf
000000e0: 81df 8cbf 5695 14bf 68dd 213d b011 853f
000000f0: 4a6a 4dbf 0bec 87be 0312 92bf 2f11 ef3e
00000100: 5f9d 87bf 8578 92bf c6d4 a6bf 9792 513f
00000110: f860 953f 25c2 51be 8a39 70bf bcc9 f43e
00000120: 6e33 153f 379a d03e b4af bbbf 73cf 7d3e
00000130: bc1c fa3e a68e 8a3e 0aed 54bf bf42 87bf
00000140: d830 92bd 26bc 953e 4ec0 8bbe 79a5 f8be
00000150: 8771 133f 5e87 bd3c 156d febc 238c e33e
00000160: 5cc7 1abf 3748 433e 2313 8bbf e5ff 0c3f
00000170: 18a9 ad3e e9d6 623e 1c3c 333f 4bb5 e83e
00000180: 9c30 b3bf f691 923e b885 063f 8ccf 3d3e
00000190: 2fc4 503f 74ba 86be 7acd 6dbf 389b bbbf
000001a0: d3dd 423f edc0 4dbf 29aa ed3e c020 27bf
000001b0: 0a1c a5bd d152 973d 35c0 61bf 6faa 17bf
000001c0: c69d 1cbf 181d b43e 80b9 65be 2d06 e23e
000001d0: 18f1 753f 36c0 d0bd 6643 92bf dc47 bfbd
000001e0: 7fbf 153f 72a6 103e e113 9cbf 0391 393e
000001f0: 785c babe 013c 1abd e4ae ae3e 4ec6 283e
00000200: 761e 1f3f 4d3d 2d3f 2c31 26bf 607a a0bf
00000210: 1e07 f73e 70f0 843e 5464 73bc 5524 efbe
00000220: 2806 d63d ae63 df3d 19b0 98bd 034d 26be
00000230: 4be5 0abe 2ea8 efbd 177a 09bf 2774 f13e
00000240: 8a58 f9b9 34c6 93bd 5d40 cdbe 5917 a3be
00000250: 7d9c 77be 0a30 1ebe 11d5 8f3e a536 b93e

fc3.bias f4 [19]
0.47114456 -0.7419476 0.29987934 -0.7854011 -0.055671617 -0.56604093 -0.5946307 0.5792905
0.35850486 0.13004246 -0.56662595 -0.2694401 0.60289675 0.84820557 -0.103897214 0.31496033
-0.17212564 0.12464545 -0.43066028
00000000: dc39 f13e 47f0 3dbf c989 993e 0c10 49bf
00000010: ec07 64bd 0fe8 10bf b839 18bf 624c 143f
00000020: f38d b73e da29 053e 660e 11bf 0ef4 89be
00000030: 7157 1a3f 0024 593f 10c8 d4bd 7b42 a13e
00000040: b441 30be 1d46 ff3d 817f dcbe
